…
ype":"code","metadata":{"id":"GwR2AkwfYFXW","colab":{"base_uri":"https://localhost:8080/"},"executionInfo":{"status":"ok","timestamp":1619329299768,"user_tz":-480,"elapsed":533108,"user":{"displayName":"劉德駿","photoUrl":"","userId":"10755332246774080837"}},"outputId":"5dfb9b79-5caa-47cc-8128-935e06d61533"},"source":["model = build_model(arch_args, task)\n","logger.info(model)"],"execution_count":null,"outputs":[{"output_type":"stream","text":["2021-04-25 05:41:40 | INFO | hw5.seq2seq | Seq2Seq(\n","  (encoder): TransformerEncoder(\n","    (dropout_module): FairseqDropout()\n","    (embed_tokens): Embedding(8000, 256, padding_idx=1)\n","    (embed_positions): SinusoidalPositionalEmbedding()\n","    (layers): ModuleList(\n","      (0): TransformerEncoderLayer(\n","        (self_attn): MultiheadAttention(\n","          (dropout_module): FairseqDropout()\n","          (k_proj): Linear(in_features=256, out_features=256, bias=True)\n","          (v_proj): Linear(in_features=256, out_features=256, bias=True)\n","          (q_proj): Linear(in_features=256, out_features=256, bias=True)\n","          (out_proj): Linear(in_features=256, out_features=256, bias=True)\n","        )\n","        (self_attn_layer_norm): LayerNorm((256,), eps=1e-05, elementwise_affine=True)\n","        (dropout_module): FairseqDropout()\n","        (activation_dropout_module): FairseqDropout()\n","        (fc1): Linear(in_features=256, out_features=1024, bias=True)\n","        (fc2): Linear(in_features=1024, out_features=256, bias=True)\n","        (final_layer_norm): LayerNorm((256,), eps=1e-05, elementwise_affine=True)\n","      )\n","      (1): TransformerEncoderLayer(\n","        (self_attn): MultiheadAttention(\n","          (dropout_module): FairseqDropout()\n","          (k_proj): Linear(in_features=256, out_features=256, bias=True)\n","          (v_proj): Linear(in_features=256, out_features=256, bias=True)\n","          (q_proj): Linear(in_features=256, out_features=256, bias=True)\n","          (out_proj): Linear(in_features=256, out_features=256, bias=True)\n","        )\n","        (self_attn_layer_norm): LayerNorm((256,), eps=1e-05, elementwise_affine=True)\n","        (dropout_module): FairseqDropout()\n","        (activation_dropout_module): FairseqDropout()\n","        (fc1): Linear(in_features=256, out_features=1024, bias=True)\n","        (fc2): Linear(in_features=1024, out_features=256, bias=True)\n","        (final_layer_norm): LayerNorm((256,), eps=1e-05, elementwise_affine=True)\n","      )\n","      (2): TransformerEncoderLayer(\n","        (self_attn): MultiheadAttention(\n","          (dropout_module): FairseqDropout()\n","          (k_proj): Linear(in_features=256, out_features=256, bias=True)\n","          (v_proj): Linear(in_features=256, out_features=256, bias=True)\n","          (q_proj): Linear(in_features=256, out_features=256, bias=True)\n","          (out_proj): Linear(in_features=256, out_features=256, bias=True)\n","        )\n","        (self_attn_layer_norm): LayerNorm((256,), eps=1e-05, elementwise_affine=True)\n","        (dropout_module): FairseqDropout()\n","        (activation_dropout_module): FairseqDropout()\n","        (fc1): Linear(in_features=256, out_features=1024, bias=True)\n","        (fc2): Linear(in_features=1024, out_features=256, bias=True)\n","        (final_layer_norm): LayerNorm((256,), eps=1e-05, elementwise_affine=True)\n","      )\n","      (3): TransformerEncoderLayer(\n","        (self_attn): MultiheadAttention(\n","          (dropout_module): FairseqDropout()\n","          (k_proj): Linear(in_features=256, out_features=256, bias=True)\n","          (v_proj): Linear(in_features=256, out_features=256, bias=True)\n","          (q_proj): Linear(in_features=256, out_features=256, bias=True)\n","          (out_proj): Linear(in_features=256, out_features=256, bias=True)\n","        )\n","        (self_attn_layer_norm): LayerNorm((256,), eps=1e-05, elementwise_affine=True)\n","        (dropout_module): FairseqDropout()\n","        (activation_dropout_module): FairseqDropout()\n","        (fc1): Linear(in_features=256, out_features=1024, bias=True)\n","        (fc2): Linear(in_features=1024, out_features=256, bias=True)\n","        (final_layer_norm): LayerNorm((256,), eps=1e-05, elementwise_affine=True)\n","      )\n","    )\n","    (layer_norm): LayerNorm((256,), eps=1e-05, elementwise_affine=True)\n","  )\n","  (decoder): TransformerDecoder(\n","    (dropout_module): FairseqDropout()\n","    (embed_tokens): Embedding(8000, 256, padding_idx=1)\n","    (embed_positions): SinusoidalPositionalEmbedding()\n","    (layers): ModuleList(\n","      (0): TransformerDecoderLayer(\n","        (dropout_module): FairseqDropout()\n","        (self_attn): MultiheadAttention(\n","          (dropout_module): FairseqDropout()\n","          (k_proj): Linear(in_features=256, out_features=256, bias=True)\n","          (v_proj): Linear(in_features=256, out_features=256, bias=True)\n","          (q_proj): Linear(in_features=256, out_features=256, bias=True)\n","          (out_proj): Linear(in_features=256, out_features=256, bias=True)\n","        )\n","        (activation_dropout_module): FairseqDropout()\n","        (self_attn_layer_norm): LayerNorm((256,), eps=1e-05, elementwise_affine=True)\n","        (encoder_attn): MultiheadAttention(\n","          (dropout_module): FairseqDropout()\n","          (k_proj): Linear(in_features=256, out_features=256, bias=True)\n","          (v_proj): Linear(in_features=256, out_features=256, bias=True)\n","          (q_proj): Linear(in_features=256, out_features=256, bias=True)\n","          (out_proj): Linear(in_features=256, out_features=256, bias=True)\n","        )\n","        (encoder_attn_layer_norm): LayerNorm((256,), eps=1e-05, elementwise_affine=True)\n","        (fc1): Linear(in_features=256, out_features=1024, bias=True)\n","        (fc2): Linear(in_features=1024, out_features=256, bias=True)\n","        (final_layer_norm): LayerNorm((256,), eps=1e-05, elementwise_affine=True)\n","      )\n","      (1): TransformerDecoderLayer(\n","        (dropout_module): FairseqDropout()\n","        (self_attn): MultiheadAttention(\n","          (dropout_module): FairseqDropout()\n","          (k_proj): Linear(in_features=256, out_features=256, bias=True)\n","          (v_proj): Linear(in_features=256, out_features=256, bias=True)\n","          (q_proj): Linear(in_features=256, out_features=256, bias=True)\n","          (out_proj): Linear(in_features=256, out_features=256, bias=True)\n","        )\n","        (activation_dropout_module): FairseqDropout()\n","        (self_attn_layer_norm): LayerNorm((256,), eps=1e-05, elementwise_affine=True)\n","        (encoder_attn): MultiheadAttention(\n","          (dropout_module): FairseqDropout()\n","          (k_proj): Linear(in_features=256, out_features=256, bias=True)\n","          (v_proj): Linear(in_features=256, out_features=256, bias=True)\n","          (q_proj): Linear(in_features=256, out_features=256, bias=True)\n","          (out_proj): Linear(in_features=256, out_features=256, bias=True)\n","        )\n","        (encoder_attn_layer_norm): LayerNorm((256,), eps=1e-05, elementwise_affine=True)\n","        (fc1): Linear(in_features=256, out_features=1024, bias=True)\n","        (fc2): Linear(in_features=1024, out_features=256, bias=True)\n","        (final_layer_norm): LayerNorm((256,), eps=1e-05, elementwise_affine=True)\n","      )\n","      (2): TransformerDecoderLayer(\n","        (dropout_module): FairseqDropout()\n","        (self_attn): MultiheadAttention(\n","          (dropout_module): FairseqDropout()\n","          (k_proj): Linear(in_features=256, out_features=256, bias=True)\n","          (v_proj): Linear(in_features=256, out_features=256, bias=True)\n","          (q_proj): Linear(in_features=256, out_features=256, bias=True)\n","          (out_proj): Linear(in_features=256, out_features=256, bias=True)\n","        )\n","        (activation_dropout_module): FairseqDropout()\n","        (self_attn_layer_norm): LayerNorm((256,), eps=1e-05, elementwise_affine=True)\n","        (encoder_attn): MultiheadAttention(\n","          (dropout_module): FairseqDropout()\n","          (k_proj): Linear(in_features=256, out_features=256, bias=True)\n","          (v_proj): Linear(in_features=256, out_features=256, bias=True)\n","          (q_proj): Linear(in_features=256, out_features=256, bias=True)\n","          (out_proj): Linear(in_features=256, out_features=256, bias=True)\n","        )\n","        (encoder_attn_layer_norm): LayerNorm((256,), eps=1e-05, elementwise_affine=True)\n","        (fc1): Linear(in_features=256, out_features=1024, bias=True)\n","        (fc2): Linear(in_features=1024, out_features=256, bias=True)\n","        (final_layer_norm): LayerNorm((256,), eps=1e-05, elementwise_affine=True)\n","      )\n","      (3): TransformerDecoderLayer(\n","        (dropout_module): FairseqDropout()\n","        (self_attn): MultiheadAttention(\n","          (dropout_module): FairseqDropout()\n","          (k_proj): Linear(in_features=256, out_features=256, bias=True)\n","          (v_proj): Linear(in_features=256, out_features=256, bias=True)\n","          (q_proj): Linear(in_features=256, out_features=256, bias=True)\n","          (out_proj): Linear(in_features=256, out_features=256, bias=True)\n","        )\n","        (activation_dropout_module): FairseqDropout()\n","        (self_attn_layer_norm): LayerNorm((256,), eps=1e-05, elementwise_affine=True)\n","        (encoder_attn): MultiheadAttention(\n","          (dropout_module): FairseqDropout()\n","          (k_proj): Linear(in_features=256, out_features=256, bias=True)\n","          (v_proj): Linear(in_features=256, out_features=256, bias=True)\n","          (q_proj): Linear(in_features=256, out_features=256, bias=True)\n","          (out_proj): Linear(in_features=256, out_features=256, bias=True)\n","        )\n","        (encoder_attn_layer_norm): LayerNorm((256,), eps=1e-05, elementwise_affine=True)\n","        (fc1): Linear(in_features=256, out_features=1024, bias=True)\n","        (fc2): Linear(in_features=1024, out_features=256, bias=True)\n","        (final_layer_norm): LayerNorm((256,), eps=1e-05, elementwise_affine=True)\n","      )\n","    )\n","    (layer_norm): LayerNorm((256,), eps=1e-05, elementwise_affine=True)\n","    (output_projection): Linear(in_features=256, out_features=8000, bias=False)\n","  )\n",")\n"],"name":"stdout"}]},{"cell_type":"markdown","metadata":{"id":"qXFqSn5RYFXX"},"source":["# Optimization 最佳化"]},{"cell_type":"markdown","metadata":{"id":"BTy4NN_HYFXX"},"source":["## Loss: Label Smoothing Regularization\n","* 讓模型學習輸出較不集中的分佈，防止模型過度自信\n","* 有時候Ground Truth並非唯一答案，所以在算loss時，我們會保留一部份機率給正確答案以外的label\n","* 可以有效防止過度擬合\n","\n",
…
